Miscellaneous/models/encoder_model.pt (torch, 581593 bytes, 4 tensors)

0.weight f4 [256, 436]
000000 10 ee 14 3d 39 11 eb 3b 1b 68 a4 bb 9b 1f 22 3d
       0.036359847 0.007173684 -0.005017293 0.039580923
000010 5b 6b 67 3a 02 20 63 bd d6 83 0a 3d f3 52 65 3d
       0.0008827948 -0.055450447 0.033817135 0.05598731
000020 63 68 fe bc 95 5b 05 bd 35 52 e8 3c 7f 9b 33 bd
       -0.031055635 -0.032558043 0.028359512 -0.043849465
000030 8a e1 e1 3d bf 1f 18 3e 64 17 c8 3c 5b 59 78 3d
       0.11029346 0.1485586 0.024425216 0.06063209
000040 d3 5e 74 3d ac f8 01 bd 58 9f 8a 3d e9 22 88 bd
       0.059660744 -0.031731293 0.06768674 -0.066472836
000050 ac cf 42 3d fb da ca bb 5b 89 94 3d c2 7b 27 bd
       0.047561333 -0.0061906553 0.07252761 -0.04088951
000060 c4 48 1f bc 25 bf 0a be 44 85 1b 3c 9c a7 05 3e
       -0.0097219385 -0.13549478 0.009492222 0.13052219
000070 a6 89 a4 bb 9c 2d 1a 3c ae 01 1a 3c 7a 59 b0 3d
       -0.005021292 0.009410288 0.0093998145 0.08610816
000080 be bd f2 3c eb 19 df bd f9 e9 b5 3d b3 90 cd bd
       0.029631492 -0.10893615 0.08882517 -0.10037365
000090 66 66 4e bd b2 ad ea 3c 31 b1 90 bc 91 80 42 bb
       -0.050390624 0.028647278 -0.017662616 -0.0029678682
0000a0 76 1e 99 bc 30 02 f1 3c 26 b1 ce bd d2 44 65 3d
       -0.018691283 0.029419988 -0.10092382 0.055973835
0000b0 66 50 1e 3e b2 ae b6 bb 63 49 d3 3b 6b 69 a1 bd
       0.15460357 -0.0055750245 0.0064479574 -0.07881435
0000c0 51 e4 a9 3d 87 d6 6d bc 53 48 8e bc 00 d3 64 bb
       0.08295501 -0.014516479 -0.017368471 -0.0034915805
0000d0 99 94 1b bc ff 40 39 bd ee ed 61 3d d9 ef 62 bb
       -0.009495878 -0.045228 0.055158548 -0.0034627824
0000e0 a9 c8 3a bd 41 b7 93 bd 59 e3 4f bc c4 df 15 3d
       -0.04560152 -0.07212687 -0.012688481 0.036590353
0000f0 af ac 83 bd 6d a0 78 3d 9d 96 fc bc 97 4c 06 bd
       -0.06429421 0.06069987 -0.030833537 -0.032787886
000100 76 5d 8e 3c f3 60 45 3d 04 83 55 bd 38 f1 85 bc
       0.01737855 0.04818816 -0.0521269 -0.016350374
000110 44 27 84 bc f2 f5 92 bd 60 86 5c bd 73 a7 07 bd
       -0.016132005 -0.071758166 -0.053839087 -0.033118676
000120 6f cd 21 bd 6a 02 52 bd f0 3d 18 3c 4c ae 1d ba
       -0.039502557 -0.051271833 0.009292111 -0.0006015047
000130 62 f1 c8 bb 35 7a 46 3c 86 4d e8 bc ca 61 04 3d
       -0.0061322907 0.012114097 -0.028357279 0.03231982
000140 95 45 56 3c 87 72 8f 3c 77 b4 0d 3d 3c db 92 bc
       0.013078113 0.017510666 0.034595933 -0.017926805
000150 16 30 01 3c bd 14 d9 bc 57 a1 91 bd 25 c0 21 3d
       0.007885 -0.026499147 -0.07110851 0.039489884
000160 5c 0b 78 bd ca 6f 07 3d c1 fb 0c bd 4f 3b 73 3d
       -0.06055771 0.033065595 -0.03441978 0.059382733
000170 44 62 d1 3c 54 19 18 bd 5d 28 90 3d cf a0 1f 3c
       0.025559552 -0.03713353 0.07038949 0.00974293
000180 6f 94 ae 3d 6c a0 41 3d 20 b0 16 3d 41 e9 e9 3b
       0.08524405 0.04727213 0.03678906 0.0071384017
000190 7c 32 63 3d 2a d3 4a bd d2 f3 40 3d b2 4a 59 3d
       0.055468068 -0.049517788 0.047107525 0.05304975
0001a0 6b 42 a4 bc d4 e3 98 bd 86 30 f9 3c c7 ba c9 bb
       -0.020051202 -0.0746533 0.030418646 -0.006156299
0001b0 24 22 18 3c ee 15 48 3d 59 bc 37 3d 7a 51 46 bc
       0.0092854835 0.04884904 0.044857357 -0.012104386
0001c0 67 9a ed 3c fe 66 e3 bc d1 f7 66 bd 7e 6c ce bc
       0.029004289 -0.027759071 -0.05638868 -0.025198217
0001d0 18 46 f2 3b 39 20 2a 3c f3 73 c4 bc 6e a8 1e bd
       0.0073936097 0.010383659 -0.02398107 -0.038734846
0001e0 c0 9d fb b9 45 69 23 bc 92 f6 bb bb ea 7e 92 3d
       -0.00047991984 -0.009973829 -0.0057361806 0.07153113
0001f0 9f 35 2e bd e8 19 61 3d b0 1c 21 bc 0d 34 05 bd
       -0.042531606 0.054956347 -0.0098335 -0.032520343
000200 50 b8 40 bd e8 93 9f 3b 06 76 82 bd 2c b7 1e bc
       -0.047050774 0.0048699267 -0.063701674 -0.009687226
000210 85 50 16 3d 5e 4c bf bc 1d f1 e1 bd 6d 28 0e 3c
       0.036697883 -0.023351844 -0.11032317 0.00867663
000220 15 0e 97 3c 84 2a 42 bd f8 ca 56 bd 6a b5 83 3d
       0.018439332 -0.047403827 -0.05243966 0.06431086
000230 63 03 46 3d 94 cb f2 bb 60 ae 0b bd 47 33 0e bc
       0.048343074 -0.0074095223 -0.034101844 -0.008679218
000240 69 0a cb 3b c5 1e 1b bd 20 5b 81 bd 34 1f de bd
       0.0061963093 -0.03787114 -0.06316209 -0.10845795
000250 23 e3 4b 3b f6 c5 6f bd 82 59 79 bb b2 b5 17 3d
       0.0031110726 -0.0585384 -0.0038047736 0.037038513
000260 4d 8a f3 3c 68 64 76 bd 78 b5 c2 3c 24 6d f5 bc
       0.029729033 -0.06015435 0.023768172 -0.029959269
000270 cb 4e 4b 3d d0 74 05 bd 06 69 3d bd c2 f0 56 bc
       0.04963569 -0.032582104 -0.046242736 -0.013118925
000280 cc 42 0e 3c 88 2b 07 bd af db 50 bd 21 46 95 3c
       0.008682918 -0.0330005 -0.050990757 0.018221917
000290 cc ae 14 3c ee c7 e5 3b af 35 63 3c af de a3 bb
       0.009074878 0.007012359 0.01386778 -0.005000911
0002a0 96 df 2b bd 3c ed 2c 3b af a1 3e 3d a1 3c 4c bd
       -0.041961275 0.002638652 0.046540912 -0.049862508
0002b0 b1 93 66 bd 10 a4 5d bd 95 ef f6 bb 34 b6 12 bc
       -0.056293193 -0.05411154 -0.0075358846 -0.008954573
0002c0 b1 a5 83 bc 6a 9a f3 3c 6b 78 e6 3c 33 a8 ed 3c
       -0.016070219 0.029736716 0.028133592 0.029010868
0002d0 a0 35 5f 3d 2b 48 d2 bb 67 aa 80 bd 2d 8d 42 bd
       0.0544945 -0.0064172945 -0.06282502 -0.047497917
0002e0 d9 20 b0 3c 9e 1b dd 3b be 4b 47 3c 0f 85 99 3b
       0.021500038 0.006747677 0.012164054 0.0046850513
0002f0 5c 55 64 3c 31 74 a1 bb 9d 75 53 bc 1a e3 5c bd
       0.013936367 -0.004927181 -0.012906459 -0.05392752
000300 43 c3 31 3d 16 54 e3 bc 17 b8 e3 bb 70 df 56 bd
       0.043399107 -0.027750056 -0.0069494355 -0.05245918
000310 4a fb 6e bd 15 a4 f7 bc f0 2e 22 3d 16 ca 36 3c
       -0.058345117 -0.030229608 0.039595544 0.0111565795
000320 2f 78 08 3c ef 27 b8 3d 55 63 c4 3c 41 9a bf bc
       0.008329435 0.08991992 0.023973146 -0.023388984
000330 a0 ec 8d 3b a5 7c ab 3c 00 d2 38 3d 07 1e 4f 3a
       0.0043311864 0.020933459 0.045122147 0.0007900898
000340 2a d9 b3 3c 8c 0e 5e bc 1c 98 f8 3c 5d 49 3f 3d
       0.021954138 -0.013553273 0.030345969 0.046700824
000350 2b 0a 8d bc 78 ab cb 3c 35 47 11 bd 80 69 f8 bc
       -0.017216763 0.024862036 -0.0354683 -0.030323744
000360 e2 30 3e 3d 51 f4 56 bc 05 22 52 bd a2 9b f5 bc
       0.046433337 -0.013119773 -0.051301975 -0.029981438
000370 99 f0 2e bb 2b 27 95 3d b3 12 a6 3c 15 ae 49 3d
       -0.00266937 0.07282861 0.020272588 0.049238283
000380 bf 88 73 3a b6 df 85 3d e4 7d 49 3d 70 1c 3e 3c
       0.0009290091 0.0653681 0.049192324 0.01160346
000390 61 f5 e2 3c a5 85 05 bd 3e 30 28 3d 05 83 ee bc
       0.027704896 -0.032598156 0.041061632 -0.02911521
0003a0 b3 4b a1 3b e6 45 1d bc b7 19 b8 bc 1b b9 78 3d
       0.004922354 -0.009599185 -0.0224732 0.060723405
0003b0 b4 e7 3e 3d 10 ff cc bc 82 fd f1 3c 4b 39 54 3c
       0.046607688 -0.025023967 0.029539827 0.012953113
0003c0 fa ef 9b 3c 17 51 e6 bc a3 86 3d bd 0b dd 95 bc
       0.019035328 -0.028114839 -0.046270978 -0.018293878
0003d0 19 22 88 bd 1b 28 99 3d 3b 87 a0 3c 13 20 54 3d
       -0.066471286 0.07478353 0.019595733 0.0517884
0003e0 9e 0c 4f bc 7d 85 73 3a 73 77 09 3d 1f e9 59 bc
       -0.0126372855 0.00092896057 0.03356118 -0.013300209
0003f0 19 a0 7f bb c2 b4 dd bc 61 ec 03 bc 74 54 87 bc
       -0.0039005338 -0.027063731 -0.008051963 -0.016519763

0.bias f4 [256]
000000 d0 48 3f 3d 52 4b cb bc 16 4d e9 3c 6e b8 c6 3c
       0.0467003 -0.024816189 0.02847914 0.024257865
000010 df 75 08 bc ec 92 37 3c 4a c4 4a 3d 5b 32 3d bc
       -0.008328884 0.0112044625 0.049503602 -0.01154765
000020 f6 d5 01 bc d5 5e 86 3d 74 df 0d 3d 37 89 a2 bb
       -0.007924547 0.065610565 0.03463693 -0.004960205
000030 28 a4 8f bc 05 cc b9 3c 7a 1d 74 3d 35 8c b1 3b
       -0.01753433 0.022680292 0.059598424 0.0054183253
000040 43 91 a2 bb 75 31 27 3d 99 9c ca 3b bb f3 11 3b
       -0.004961164 0.04081865 0.0061832187 0.0022270519
000050 ed 95 07 bb 13 f6 0c 3d 35 37 66 3d bb e3 91 3d
       -0.0020688728 0.034414362 0.056204993 0.07123514
000060 1b f1 78 3d a9 6f 31 3c f6 58 f5 3c 05 50 bd 3b
       0.06077681 0.0108298445 0.029949646 0.0057773613
000070 e8 1b 12 3d 92 0c bc 3c 13 be bf bc 29 29 32 3c
       0.035671145 0.022955213 -0.023406064 0.010874071
000080 60 67 89 bb 7d a3 ef 3c 0a 92 72 3d b2 43 10 3d
       -0.0041932315 0.029252762 0.059221305 0.03522081
000090 f8 6e b3 3c 68 45 b8 3c 4c fe 46 bd a0 77 de 3c
       0.0219035 0.022494033 -0.04858236 0.027156651
0000a0 d3 1a 31 3d d8 64 16 3d 81 42 41 bb a1 0b 7f 3d
       0.043238472 0.036717266 -0.0029489102 0.06226695
0000b0 61 52 f0 bb 0e 57 ac 3c eb b3 b3 3c b9 99 90 3c
       -0.007334039 0.021037605 0.021936378 0.017651426
0000c0 67 52 36 3d 3a 8f be bc 29 ae b6 bc 81 1a 39 3d
       0.04451218 -0.023261655 -0.022299843 0.04519129
0000d0 8e b2 43 3d 25 ee 66 3c 56 5b 67 3d 21 ab 06 3d
       0.047777705 0.014094864 0.05648359 0.032878045
0000e0 b9 c4 fe 3c d4 53 c7 bc f1 5f a1 3c be 24 99 bc
       0.031099664 -0.024331965 0.019699069 -0.018694278
0000f0 8e 54 a0 3b cb 51 42 3d 6a 44 38 3d 0c db a2 bc
       0.004892892 0.047441285 0.04498712 -0.01987984
000100 b1 0d 71 3d 07 a7 23 bd 9f 3f 5c 3d 61 ba 1b 3d
       0.058850948 -0.03995421 0.05377161 0.03801954
000110 73 1e eb 3c e3 29 d9 bc 89 45 d5 3b ee 57 1d 3d
       0.028701043 -0.026509231 0.0065085334 0.038413934
000120 22 ac 57 3d 23 e7 60 3d e7 5c 04 ba 2a ba 60 3d
       0.052654393 0.05490793 -0.0005049244 0.05486504
000130 80 06 29 3d cc be bf 3c 9f 61 40 3d d7 5d a3 bc
       0.041265965 0.023406409 0.0469681 -0.019942207
000140 81 80 93 3d ec 07 48 bd e0 1d 2a 3c 6c f8 97 3b
       0.072022445 -0.04883568 0.010383099 0.0046377685
000150 11 3e 4b bc 60 d1 2b 3d 43 2b 6d bc b1 f4 d6 3c
       -0.0124049345 0.041947722 -0.014475646 0.026239725
000160 3a bb 4b 3d c4 5f 6e 3d c6 6f da b9 4f 1f ff 3c
       0.0497391 0.058196798 -0.00041663478 0.031142859
000170 96 d2 70 3d 6b f2 65 3d 47 31 c0 bc db a2 8c bc
       0.05879458 0.05613939 -0.023460997 -0.0171675
000180 e1 73 1a 3d 3a da 8e 3c df 2b 27 3c 0a 4c 45 3d
       0.037708167 0.017438043 0.010203331 0.04816822
000190 02 1d 5b 3d ca 18 e9 bc 00 31 e5 3c d9 cd b8 3c
       0.05349446 -0.028454203 0.027977467 0.022559093
0001a0 89 a2 32 3c a1 1e af 3c f5 4a 79 3d 47 ca 11 3d
       0.010903009 0.02137691 0.0608625 0.035593297
0001b0 62 12 bc 3c 60 5c be 3c 75 d6 7c 3d 0c e8 6f 3d
       0.022957984 0.023237407 0.06172796 0.058570907
0001c0 c6 4c 48 3d 89 cd 6a 3d 51 12 2d 3c 2e 0c 76 bb
       0.04890134 0.05732492 0.010563449 -0.003754388
0001d0 33 f6 8d 3d 66 16 3c bc ba 78 42 3d 0d 0e 84 3a
       0.069317244 -0.01147995 0.047478415 0.0010074988
0001e0 3a 0e 4c bd c4 3e 24 bd 48 57 ed bb 79 67 ae bc
       -0.049818255 -0.04009892 -0.0072430708 -0.021289574
0001f0 05 8a 0e 3d 0a 08 ac 3c be d3 84 bc 42 37 a4 bc
       0.034799594 0.020999927 -0.016214248 -0.02004588
000200 8e 24 1c 3d 85 21 b3 ba 24 e6 5c 3d ab 7a 6a 3c
       0.0381208 -0.0013666606 0.053930417 0.014311473
000210 d1 15 8d bc 5e d4 1a bc 97 5d 8b 3c 6e a7 36 3d
       -0.017222317 -0.009450046 0.0170124 0.044593267
000220 81 7a 0d 3d f2 a2 9a 3c f8 7b 30 3d 23 33 0f bc
       0.034540657 0.018876527 0.043086976 -0.008740219
000230 80 21 f3 3c 67 87 18 3c 4a 50 14 3d f8 ec 2a 3d
       0.02967906 0.009309626 0.036209382 0.041729897
000240 8d de 69 3d b2 de 66 3d 8f f8 a8 bc a9 fc ff 3c
       0.057097007 0.056364723 -0.020626334 0.031248407
000250 1c f4 13 bd 0f bb 0b bd 66 37 b3 3b a8 f0 c3 bb
       -0.036121473 -0.03411394 0.0054692505 -0.005979616
000260 ec a7 2a 3d c7 c6 96 3c 16 40 4c 3d 0c ef c1 3b
       0.04166405 0.018405331 0.049865805 0.005918389
000270 26 53 7b 3d d8 73 19 3d 13 cb 48 bd 05 b0 1b bc
       0.061358593 0.037463993 -0.04902179 -0.009502416
000280 9c 49 41 3b bc cc 9f bc c3 db 09 3d f4 2a 53 3c
       0.0029493337 -0.019506805 0.033656847 0.012888659
000290 22 4b 50 bd 14 d9 ad 3c 1a 6d 59 3d aa 2b d0 3c
       -0.050852902 0.021221675 0.053082563 0.025411446
0002a0 4f 89 93 3c 82 90 04 bd e9 f4 8a 3c 0a 51 ba 3c
       0.01800981 -0.032364376 0.016962485 0.02274372
0002b0 7a a8 3a 3d fa 19 67 3c 39 15 ea 3c 80 16 61 3d
       0.045570828 0.014105314 0.028574573 0.0549531
0002c0 1f 1c 48 3d f8 ba 55 3c 2b 0a 1e 3d 87 c6 48 3d
       0.048854943 0.013045065 0.038583916 0.049017455
0002d0 41 e8 da 3c 03 3c dc 3c 86 0a da bc ae a9 3d 3c
       0.026722075 0.026884085 -0.026616346 0.011576099
0002e0 f1 70 af bc 6b 50 63 3d 59 04 cb bb 60 7f 4f bb
       -0.02141616 0.055496614 -0.0061955866 -0.0031661615
0002f0 d3 5f b0 bb c9 c0 6b 3d 46 b7 30 3d 17 46 14 3d
       -0.005382517 0.0575569 0.043143533 0.036199655
000300 f4 21 83 3d 3a 9f 35 3d 93 7e ac 3c b2 85 8e bc
       0.064029604 0.044341303 0.021056449 -0.017397735
000310 05 4d 23 bd 52 e1 f2 3c cd 00 bc 3c 91 a5 2a 3c
       -0.039868373 0.029648457 0.0229496 0.010415451
000320 0f 31 a0 bc b4 e4 e1 bb c4 42 ae bc 5f dc 04 bd
       -0.019554643 -0.0068937186 -0.02127207 -0.032436725
000330 5b 26 49 3d c5 da 4e 3b 6c ec 84 3d ea c3 ed 3b
       0.049108844 0.0031563502 0.064904064 0.007256021
000340 aa 2b 30 3b 51 62 a4 3c 48 21 db 3a b5 b2 54 3d
       0.0026881495 0.020066412 0.0016718293 0.05192824
000350 c8 2b 5a 3d 78 4b 97 3c 50 ae 18 bb 70 71 c8 3c
       0.05326441 0.018468603 -0.0023297258 0.024468154
000360 a8 2e b4 bb 98 b2 c4 bc 7f 53 70 3d 58 3d f8 38
       -0.005498726 -0.024010941 0.058673378 0.00011836988
000370 44 c1 04 3d 10 52 5f bb 4c 08 d0 3c f9 e9 8d bc
       0.032410875 -0.0034076013 0.025394581 -0.01732348
000380 03 8c 02 3d 60 e3 82 3d e4 8a 17 3d 62 47 2a bc
       0.031871807 0.063910246 0.03699769 -0.010392996
000390 26 6c e4 3c 5c af 2d 3d 98 35 bd 3c 58 cd 07 3b
       0.0278836 0.042403564 0.023096845 0.002072176
0003a0 ba 90 8d bc bb b9 6f 3b 93 df da bc 8c 29 cd 3c
       -0.017280925 0.003657921 -0.026717937 0.025044225
0003b0 96 98 88 bc 09 aa d4 3c 9c a8 50 3c 4b a4 1b bc
       -0.016674321 0.025959985 0.012735512 -0.00949962
0003c0 12 85 ac bc 89 8c a5 3c 11 d0 2e 3d 86 26 8a 3c
       -0.021059547 0.020208614 0.042678896 0.016864073
0003d0 64 38 fa 3c c4 9b 95 bc f5 0a c6 bb 10 04 d3 3c
       0.030544467 -0.018262751 -0.0060437866 0.025758773
0003e0 6a 8f 16 3d c0 73 06 bc a9 89 0c 3c f9 43 1c 3c
       0.036757864 -0.008206308 0.008577743 0.00953769
0003f0 a5 f0 7e bc 06 8a 73 3c 0c d5 c3 3c 4f 50 34 3d
       -0.015560304 0.01486445 0.0239053 0.0440219

2.weight f4 [128, 256]
000000 cc 94 4f 3c 58 13 02 3d d9 4a 36 3d 83 ed 77 3d
       0.012669753 0.03175673 0.044504974 0.060529243
000010 a2 ed 74 bd e7 11 16 3d 5c 0b e3 3b ea 7d b4 3c
       -0.059796937 0.036638167 0.0069288444 0.022032697
000020 71 10 2c bd 18 dd d9 bb 64 c5 4a bc 67 2f 9a bd
       -0.042007867 -0.006648671 -0.012376163 -0.075285725
000030 94 39 99 3d 33 f8 01 3d 89 c8 a8 bd a4 15 12 bc
       0.07481685 0.03173084 -0.08241374 -0.008916292
000040 67 29 63 bc 5a 8d 44 3c ca 8d 96 bb c1 1a 9b 3d
       -0.013864852 0.011996591 -0.0045945393 0.07573462
000050 fe 06 1a bc b6 e5 4e 3d f7 ec ad 3b 40 ff 60 bd
       -0.009401081 0.05051204 0.0053077894 -0.054930925
000060 ff 24 84 bd 31 59 95 3c a8 d3 a1 3d 11 e0 4d 3c
       -0.06452369 0.018231006 0.07901698 0.012565629
000070 aa 25 7e 3d 46 1a 80 bd e4 eb a3 bc 8a 0d ae bd
       0.062047638 -0.06255011 -0.020009942 -0.08498676
000080 db 35 1d 3d cd 2e e5 bc 10 65 5c 3d 78 f0 bd bd
       0.03838144 -0.027976418 0.05380732 -0.092743814
000090 d6 4a ea bc 45 7a 27 bd f2 96 88 3d ee 70 df bc
       -0.028600138 -0.04088809 0.066694155 -0.027275529
0000a0 c0 61 08 3c 1a f0 53 bc 78 af 07 3d 1c 7c 61 3c
       0.008324087 -0.012935663 0.033126324 0.0137625
0000b0 0e 34 81 3d be 63 66 3c 0f a4 d1 bc 02 cc f1 bc
       0.06308757 0.014061866 -0.025590925 -0.029516224
0000c0 a2 75 c6 bc 4a 00 30 b9 7b 37 d6 bb 2b d8 1f bd
       -0.024226014 -0.00016784776 -0.0065373755 -0.039024513
0000d0 df 92 53 3d 51 05 92 3c e0 8d c2 bd 08 9e 9f 3b
       0.05165374 0.0178248 -0.09499717 0.0048711337
0000e0 9e 72 80 bd f8 24 85 bc df 16 4b bd 9f 6a 97 bd
       -0.062718615 -0.01625298 -0.04958236 -0.07393383
0000f0 42 f5 67 bd 3f 34 11 3d 66 02 5c 3d 35 38 88 bd
       -0.05663038 0.035450216 0.053713225 -0.06651346
000100 8d 2b 35 bc 50 f3 2a bb a4 dc fa 3c 47 5c 2a 3c
       -0.011057747 -0.0026084967 0.030622788 0.010397977
000110 6c b4 81 bd 33 7d 70 3d 61 36 68 bc c3 cf 10 bd
       -0.06333241 0.05871315 -0.014173121 -0.035354387
000120 30 85 90 bc 02 6b 78 bd c0 c1 ac bc d5 79 82 bd
       -0.017641634 -0.060648926 -0.021088481 -0.06370894
000130 87 2e f9 bc f6 1e bb bc b2 f8 83 bd 45 f7 09 bd
       -0.030417694 -0.022841912 -0.06443919 -0.03368308
000140 a5 8e 07 bd e9 d3 02 3d b4 b9 ed 3b 64 4f a7 3a
       -0.03309502 0.031940375 0.0072548036 0.0012764749
000150 9a fb 7c bc ee db 2d bd 0a 3b bf bb 95 da a7 bd
       -0.015440846 -0.04244607 -0.0058358954 -0.08195988
000160 a2 38 70 bd a8 f4 cd 3b ae a9 22 3d be 52 3b 3d
       -0.05864776 0.006285269 0.0397126 0.045733206
000170 63 9a 2d 3d 07 84 46 3c df 85 16 3d ad 20 de 3c
       0.042383563 0.012116439 0.036748763 0.02711519
000180 7d b5 67 3d 60 fd 86 3b 8c cc 26 3d 2d 78 23 bd
       0.056569565 0.00411956 0.040722415 -0.03990953
000190 0c 71 27 3d 56 2c 80 bd 49 d7 35 3c 5a de 98 bd
       0.040879294 -0.062584564 0.011098691 -0.07464285
0001a0 8d 03 dc 3c d9 84 28 3c c2 6b cf 3d a2 b7 23 3d
       0.026857162 0.01028558 0.10127975 0.039970048
0001b0 fc 12 89 bc 84 99 85 bd 3b f5 33 3d d4 e0 bf bd
       -0.016732685 -0.065234214 0.043935042 -0.093690544
0001c0 13 b4 0a 3c e5 a1 ec bc c7 59 98 bd 99 cc 69 3d
       0.008465785 -0.028885791 -0.07438999 0.057079885
0001d0 ee e9 76 bd 78 df 82 bc 9f 92 6e ba 18 8d 47 bd
       -0.060281686 -0.015975699 -0.0009100828 -0.04871854
0001e0 7d 22 8e 3d 83 68 85 bc 6d 0f 19 bd 4a 88 9f bc
       0.06940172 -0.016285187 -0.037368227 -0.019474167
0001f0 da 2b 36 bd f5 18 58 bd 32 d2 32 bd 75 b7 8b 3c
       -0.044475414 -0.052758176 -0.04365749 0.017055253
000200 6b 7b 99 3c d7 84 6b 3c 62 95 d7 3c 7e 64 f6 3c
       0.018735608 0.014374933 0.026316348 0.030077215
000210 0c 51 8f 3c 66 0e 93 bd c3 a2 e2 3a d6 a5 35 3d
       0.0174947 -0.07180481 0.0017290938 0.044347607
000220 58 93 7c 3c 29 85 4e 3d a3 70 cd 3b f2 51 b6 bb
       0.015415989 0.05041996 0.006269531 -0.005563968
000230 67 a3 86 bd b8 5c 58 bd dd 9b 23 3c a7 e7 f5 3c
       -0.06574135 -0.0528228 0.009985891 0.030017687
000240 8b 7c 18 3d 51 eb 83 bc dc 4d 48 3d 5a ed 07 bc
       0.03722815 -0.016103419 0.048902377 -0.008296335
000250 b7 03 1b 3d 7d 72 2a 3c 37 84 c2 3d 9b 33 4f bd
       0.03784534 0.010403273 0.09497874 -0.050586324
000260 fe a1 71 3d 92 24 13 3c 32 99 1f 3d d2 cb 8e bc
       0.05899238 0.008980887 0.038964458 -0.017431173
000270 42 a4 56 bd 08 c9 c1 3c 07 39 56 bd 8d 74 80 3d
       -0.052402742 0.02365543 -0.05230048 0.0627223
000280 ca 64 09 3d ab 57 4e bd f7 b7 87 3c 5e 43 0d 3d
       0.033543386 -0.050376575 0.016567213 0.034488074
000290 fe 45 4e bd f3 c9 4e 3d e3 cd 9c bd 08 e2 81 bd
       -0.05035972 0.050485563 -0.07656457 -0.0634194
0002a0 41 9e 9c bd 2a 96 01 3d b6 51 5b bd b8 ec 06 3d
       -0.07647372 0.03163735 -0.053544722 0.032940596
0002b0 bb ea d9 3c 53 fd 28 3d 92 3a ad bc 13 6b 15 bd
       0.026601186 0.041257214 -0.021146093 -0.036479067
0002c0 8a b3 3d 3c 32 2a 1b bd 29 f6 61 3c 76 c8 e0 bc
       0.01157845 -0.037882037 0.013791599 -0.027439337
0002d0 be c1 83 ba 83 88 91 3c 49 8d 07 3d 59 5b 87 3d
       -0.0010052247 0.01776529 0.033093724 0.0660922
0002e0 36 59 a0 bb 48 c7 e9 3c 9b 8f 42 3d ae 94 f9 3c
       -0.0048934473 0.028537408 0.047500234 0.030466404
0002f0 27 6f a9 3d 5c 13 1f 3d 00 43 4e 3d f0 70 10 3c
       0.08273154 0.038836822 0.050356865 0.008815989
000300 fa 1e 95 3d 1d 60 be 3c ea 52 2e bd fa 69 b3 bc
       0.07281299 0.02323919 -0.04255954 -0.02190112
000310 12 41 ac bc 6d 7c 15 3c 8e 67 a4 bc a0 f3 7b bc
       -0.021027122 0.009123904 -0.02006891 -0.015377909
000320 f7 1f 7a bc 69 fd 90 bd f7 49 af bc 77 b7 86 3d
       -0.01526641 -0.07079584 -0.021397574 0.06577962
000330 6a 4e 90 bd 06 10 a8 bc f7 99 68 bc d0 6f 50 3d
       -0.07046206 -0.020515453 -0.014196864 0.050887883
000340 d0 b3 15 bd 39 30 42 3d 6c c2 23 bb bc 0c 75 bd
       -0.036548436 0.04740927 -0.002498771 -0.059826598
000350 6c ad 66 bd 77 ea 34 3c 44 85 8e 3d 36 71 19 3d
       -0.05631773 0.011042229 0.06959012 0.037461482
000360 40 12 1e 3d dc 2b 55 bd f5 41 01 3d d2 52 d5 3c
       0.038591623 -0.05204378 0.031557042 0.026040468
000370 a3 9e d4 3b 68 44 33 bd 27 b5 9c bd 49 bd a5 bd
       0.0064886375 -0.04376641 -0.076517396 -0.08092744
000380 b5 41 98 bd fe 0b 3e 3c a8 40 b1 bc d4 e2 4b 3c
       -0.074344076 0.011599539 -0.021637276 0.012444217
000390 78 3c 8b bd 0a bf 93 3c 4e 4f d4 ba 8e 35 95 bd
       -0.06798643 0.01803543 -0.0016197951 -0.07285605
0003a0 ab 93 b7 3d 5a 1c 18 bc 8f 64 82 3c 66 05 28 3c
       0.08963712 -0.009284103 0.01591709 0.010255193
0003b0 b5 f0 f6 3c 84 95 91 bc c5 bc 3d bd f9 51 5f 3d
       0.030144075 -0.01777149 -0.046322603 0.054521535
0003c0 90 0b a4 3d a1 6a 7d bd 84 84 b0 bd d9 2c 76 bd
       0.08010018 -0.061869267 -0.08619025 -0.060101364
0003d0 e2 1b e6 bc 0d 3e 60 3d 0c fd 7f 3d 09 64 d7 bc
       -0.028089467 0.054746676 0.062497184 -0.026292818
0003e0 29 8d 1a bd 65 8f 09 bd 34 32 d2 3b 74 4c 14 bd
       -0.037732277 -0.033584017 0.006414676 -0.036205724
0003f0 b1 70 c7 3c 64 0c da bc d2 99 6b 3d b6 6a c8 3b
       0.024345728 -0.026617236 0.05751974 0.0061162366

2.bias f4 [128]
000000 c1 80 12 bc 0e d4 2e bd ff 51 c5 bc b9 9d 49 3d
       -0.00894183 -0.0426827 -0.02408695 0.04922268
000010 9e 52 08 bc 78 2b bf 3c fc 19 3f bc 81 11 5e bd
       -0.008320479 0.023336157 -0.01166391 -0.05421591
000020 42 c9 05 3d 3e 2e 5e bd 8d 33 8d bc 1f 2d 5d 3d
       0.032662638 -0.05424332 -0.017236495 0.05399811
000030 83 e7 05 bd 09 24 fc bb 1f 4e 82 bc b6 19 22 3d
       -0.03269149 -0.0076947254 -0.015906392 0.0395753
000040 24 b4 c2 3c 76 be 1f bd ca e8 27 bd 22 b7 92 bc
       0.023767538 -0.038999997 -0.04099349 -0.01790959
000050 5a 92 58 bd 1f 8a ce 3a f0 42 ef 3b 59 cf 33 bd
       -0.052873947 0.0015757716 0.0073016807 -0.043898914
000060 22 30 86 bc a1 ff 3c 3d 35 ed 17 3d 5d 53 24 bd
       -0.016380373 0.046142224 0.037091453 -0.040118564
000070 66 98 f9 3b d9 e0 76 bd de 09 00 bc 08 d8 04 3d
       0.0076170443 -0.060273025 -0.0078148525 0.032432586
000080 6f 69 6b bd cd 1e a8 3d a7 d2 92 bd e1 52 75 3a
       -0.057473596 0.08209 -0.07169085 0.0009358358
000090 11 57 19 bd 34 00 f2 3c ba 4a f2 bc 3e 4d 9d bc
       -0.03743655 0.029541112 -0.029576648 -0.019201871
0000a0 6a 75 dc 3b 24 9c 1c bd 07 37 18 bc 94 72 85 bc
       0.006727864 -0.038234845 -0.009290463 -0.016289987
0000b0 ba 98 51 3d d6 4f 01 3d 16 8b 3a 3a 92 00 60 bd
       0.051171042 0.031570278 0.00071160623 -0.054688044
0000c0 53 a6 6b 3c ea 98 f2 3c fa 1b 14 3d 84 a8 16 bd
       0.0143829165 0.02961393 0.036159493 -0.036781803
0000d0 69 16 b8 bb 01 4d 9d 3c e8 11 e6 bb 77 3d 6c 3d
       -0.005617906 0.019201757 -0.0070211776 0.057675805
0000e0 ba f5 82 bd 1f 1d 26 3d 2b bb ba bc 90 d6 96 3d
       -0.06394525 0.040555116 -0.022794327 0.07365143
0000f0 34 a3 d9 3c 09 70 85 3d 33 cf 59 3d 8e 9f 87 bc
       0.02656708 0.0651551 0.053176116 -0.016555574
000100 38 56 c6 bc d5 0f ec 3b 56 29 a4 bb 37 5c 83 3d
       -0.024211034 0.0072040358 -0.0050098104 0.06414073
000110 74 93 84 bd 5b 03 85 bc a7 97 15 3c 91 6c 10 bd
       -0.06473437 -0.016236952 0.009130395 -0.035259787
000120 1f 31 dc bb 07 bb 43 3d 8d b0 b8 3c 61 4a 35 3d
       -0.006719723 0.047785785 0.022545123 0.044260386
000130 ec f2 32 bd bc a6 8f bd 54 ff 93 bc c7 95 25 3d
       -0.0436887 -0.07014224 -0.018066086 0.040426042
000140 fd 0d f8 bc 06 c2 19 3c d0 5e 69 bd b0 88 1e 3d
       -0.030280108 0.009384638 -0.056975186 0.038704574
000150 16 05 20 3d e3 86 20 3c f1 dc 23 3d 07 dd 5a 3c
       0.03906735 0.0097977845 0.040005628 0.013358361
000160 1f c2 1b bd c8 20 80 bc fe 26 06 3b 34 fb 54 3d
       -0.038026925 -0.015640631 0.0020470018 0.05199738
000170 3f 13 0a 3d 4a 94 6b 3c 8f da 89 b9 11 5d cb ba
       0.03370976 0.014378617 -0.00026293515 -0.0015515407
000180 a9 8e f0 bc af ff 4a bd 7b 09 32 bd 37 d1 c1 bb
       -0.0293649 -0.049560245 -0.043466073 -0.005914833
000190 9d cc 19 3d cf 71 58 3c a4 0c f0 bc 8a 31 2b 3c
       0.03754865 0.013210728 -0.029302903 0.010448823
0001a0 10 00 ff bc 6e 46 77 3d 95 94 61 bd 31 41 a6 3c
       -0.03112796 0.0603699 -0.05507334 0.020294758
0001b0 5e 51 25 bb 2a 71 40 bd 5e a8 c1 3c 68 a6 b4 3c
       -0.00252255 -0.04698292 0.023639854 0.022052005
0001c0 22 61 5c 3c 1d 75 e2 3c 29 c0 ec bc 53 a6 49 bd
       0.013450893 0.027643735 -0.028900223 -0.049230885
0001d0 2d 11 c3 3c 81 6f df 3c 03 19 5e bd 8e cd 00 bd
       0.023811901 0.027274849 -0.05422307 -0.031446032
0001e0 8b 59 73 bd 26 1e 62 3b 43 82 4f bd 96 6c 8a bd
       -0.059411567 0.0034502833 -0.050661337 -0.067589924
0001f0 e5 0d 89 3d 21 b3 8d 3c 1b f7 7e 3d 22 b4 13 3d
       0.06692103 0.01729733 0.062247377 0.03606046
