Miscellaneous/models/encoder_model.pt (torch, 581593 bytes, 4 tensors)

0.weight f4 [256, 436]
000000 70 72 4b 3d b7 98 b5 3a 2d 27 2e bd b2 ea 7c 3d
       0.049669683 0.0013854717 -0.04251783 0.06174726
000010 f7 29 7a bc 8e 3e 53 3d 3a db 6b 3d ce 81 b0 3c
       -0.015268794 0.05157333 0.057582118 0.02154627
000020 8d bb 7f 3d e2 72 59 bb 6c ca 27 3d 9c 31 e5 bc
       0.06243472 -0.0033180048 0.04096453 -0.027977757
000030 d3 7d de 3c 3f 2a 93 bd b6 5e 7a bc 9f 71 44 bd
       0.027159607 -0.07185792 -0.01528137 -0.04795992
000040 76 f8 2f 3d 3e 99 18 bd 9e 03 ff bc 83 33 b4 3a
       0.04296156 -0.03725552 -0.031129654 0.0013748262
000050 84 04 8c 3d 96 f3 95 bd 90 aa ae 3d 97 29 02 bd
       0.06836799 -0.07321851 0.08528626 -0.031777944
000060 35 ef b3 3d 61 0a ab bd 78 35 ef 3d 21 9e 36 3d
       0.087858595 -0.08351589 0.1168012 0.044584397
000070 fc 53 a9 bd df 40 3c 3d e9 aa e2 3d 5c 5f e8 3d
       -0.08267972 0.045960303 0.11067755 0.11346313
000080 42 ca db 3d a8 97 6c bd 6c 54 8d bd 0f 12 03 bd
       0.10731937 -0.05776182 -0.06900868 -0.031999644
000090 fa 9b 56 bd 13 60 e1 bc 8e d5 a5 3c a5 05 0d 3d
       -0.052394845 -0.027511632 0.020243432 0.03442921
0000a0 d8 0d b3 bd 5e c8 05 3e 50 f7 af bd 48 73 2c bd
       -0.08742875 0.13064715 -0.08592093 -0.04210213
0000b0 b2 d3 56 3c 15 b8 6c bd 6e 8f b4 3d f2 11 30 3c
       0.0131119955 -0.05779274 0.088164195 0.010746466
0000c0 ad 4e bd bc 02 5e ab 3d 1a 78 93 39 e0 09 ba 3d
       -0.023108805 0.0836754 0.00028127508 0.09083915
0000d0 43 fe 10 3d 52 25 c1 bc 4e 4a ef bc dd 56 82 bd
       0.035398733 -0.023577366 -0.029210236 -0.06364224
0000e0 b3 9c b1 bc ee 9f e1 3c 80 56 6a 3d e8 c3 31 3d
       -0.021681165 0.02754208 0.0572114 0.04339972
0000f0 2e cb d8 bc fb 94 d8 3c 2a c6 a5 bc 51 fc 4e bb
       -0.026464071 0.026438227 -0.020236094 -0.0031583498
000100 6a 57 20 3c b5 54 8b 3d 43 a9 f3 bc f1 0a 04 bc
       0.009786466 0.06803266 -0.029743796 -0.008059249
000110 1b 08 9b bd 52 c0 f3 bb 2b 95 03 bd 2d e1 1e 3c
       -0.07569905 -0.007438698 -0.03212468 0.009697241
000120 e6 74 0d bd 8b e5 6b 3c 7c 4b bb bc e7 16 4f bd
       -0.03453531 0.014397989 -0.022863142 -0.05055895
000130 2a 30 f7 bb a2 d9 b6 3c 5a db cf b9 50 79 82 bc
       -0.0075435834 0.022320572 -0.00039645546 -0.015926987
000140 bd d0 81 3c 75 30 fd bc 32 0d 1d 3c a2 a7 2c 3c
       0.015846604 -0.030906895 0.009585666 0.010538014
000150 a2 85 97 bc d5 58 03 3c 85 8a 51 3c a2 14 89 3c
       -0.018496338 0.008016785 0.012789373 0.016733471
000160 71 a0 b3 bb 3f 21 84 3c a2 1f 45 bd 2b 74 25 bd
       -0.0054817726 0.016129134 -0.04812587 -0.04039399
000170 06 c4 a3 bc 51 9c cd bc 0b c2 0b bd 29 b1 1d bc
       -0.019990932 -0.025098952 -0.0341206 -0.009624758
000180 da e7 84 3d 21 8a 37 3c 1f 2f 6c 3c 3e 26 85 bb
       0.06489535 0.011202366 0.014415531 -0.0040633967
000190 10 8c 76 bc b6 b4 1c bd e2 85 1b 3d f2 cf 2b bd
       -0.015048042 -0.038258277 0.037969477 -0.04194636
0001a0 f3 9d cb 3c 3e 25 76 3d f0 13 4b 3d 3d bb b0 3c
       0.02485559 0.06009411 0.04957956 0.021573657
0001b0 e5 75 06 3c d5 79 f5 3c df dc d4 3c 13 a9 7b bd
       0.008206819 0.02996532 0.025984226 -0.06144054
0001c0 10 1a 61 bd af a4 25 bc d4 73 43 ba 3c c2 80 bc
       -0.054956496 -0.010110064 -0.00074559194 -0.015717618
0001d0 c0 70 c8 3c d6 fc 08 3d e4 47 9e bc 5a c4 5e 3c
       0.024467826 0.03344425 -0.01932139 0.013596619
0001e0 cf b5 79 bd fd 19 f2 bb b0 51 20 3d 4a 06 2c bd
       -0.0609644 -0.007388352 0.039140403 -0.041998185
0001f0 30 bf 75 3d 43 fa a3 bd 5b 9a 60 bd fa cb df 3c
       0.059996784 -0.08006718 -0.054834705 0.027318943
000200 38 85 95 3c 4b aa 03 3d 8e c5 f8 3c c7 d2 3f bd
       0.018252 0.032144826 0.030367639 -0.046831872
000210 3b 31 a8 bc f2 11 87 bd 2f c3 17 bc 67 8a 13 bc
       -0.020531287 -0.0659522 -0.009262844 -0.009005166
000220 4c 9a 61 3d ee e8 22 3c 71 1b 35 bd bf 38 2c 3c
       0.05507879 0.00994323 -0.044215623 0.010511576
000230 94 61 8e bc c0 7a 75 bc 03 08 c7 3c 99 98 17 bd
       -0.017380513 -0.014982879 0.024295812 -0.037010763
000240 8e 54 d1 3c 7b f1 02 bd 52 23 c0 bc f9 6e be 3c
       0.025553014 -0.031968575 -0.023454342 0.023246275
000250 34 1b 03 bc 19 e4 40 3d 25 28 40 3c 15 13 21 bd
       -0.008002091 0.04709253 0.011728321 -0.03932484
000260 55 50 b5 3c 29 f9 48 3c d5 18 81 3c 18 77 dd 3c
       0.022133032 0.012266436 0.015758911 0.027034327
000270 eb f9 63 3d ba d0 d4 bc 37 1b 2c bd 4b 34 69 bb
       0.055658262 -0.025978435 -0.04201814 -0.0035584148
000280 30 16 0d bd 96 74 c7 3c d4 93 00 bc 29 5c 4f 3c
       -0.034444988 0.024347585 -0.007847745 0.01265625
000290 28 ba f8 3c 6f 51 82 ba 7b 59 be bc 95 35 4a 3c
       0.030362204 -0.0009942482 -0.023236027 0.0123418765
0002a0 03 5d 20 bd 1f eb a8 3d b4 5b 40 3d 22 f0 cc bb
       -0.039151203 0.08247971 0.046962455 -0.006254212
0002b0 ba 24 09 bb 37 da 32 3c c3 02 e3 bc 00 b3 14 3c
       -0.0020926432 0.010916284 -0.027711278 0.00907588
0002c0 2d 15 1f bd 19 09 6e 3d 03 fb 04 3d 78 e5 61 3d
       -0.038838554 0.058114145 0.032465946 0.05515048
0002d0 b1 45 a3 3d 03 bb 2d 3c cd e3 db bc 04 dc a2 bc
       0.07972277 0.010603669 -0.026842022 -0.019880302
0002e0 db 59 f4 bb 57 ef e0 bc 32 51 ff bb 9a ac 87 bd
       -0.0074570007 -0.027457876 -0.0077916617 -0.06624718
0002f0 44 16 21 3d 94 58 e6 3b 6d 39 bd 3b 7e 5a b3 bc
       0.039327875 0.0070296023 0.005774668 -0.021893736
000300 9c 83 14 3c 09 47 d1 3c 42 fe b3 3c 46 17 29 bc
       0.009064581 0.025546568 0.021971826 -0.01032049
000310 1a 33 27 3c d3 d6 b0 bb 3f 65 c2 bc 63 f3 43 bd
       0.010205055 -0.005396703 -0.023729919 -0.047839534
000320 c6 7f 83 bc d7 f8 7d bd 92 4f 44 bc fc bb bc bb
       -0.016052138 -0.06200489 -0.011981862 -0.005759714
000330 eb 43 68 bd b8 c1 91 bc 52 77 72 3d 97 94 ed bb
       -0.056705397 -0.017792568 0.059195824 -0.0072503793
000340 f9 81 93 bd d2 ee ae 3c 45 82 3c bd 62 5e 04 3d
       -0.07202525 0.021354113 -0.046022672 0.032316573
000350 01 ae 13 bd 01 5f ec ba 28 90 6d bc 8f 25 41 bc
       -0.036054615 -0.0018033684 -0.014499702 -0.01178874
000360 41 39 6a 3a 10 a0 2c 3b 2e cf 26 3d e9 6e e5 bc
       0.0008934923 0.0026340522 0.040724926 -0.028006988
000370 8c b0 3f bd 01 00 e9 bc 5b 1e b9 39 b9 c1 95 3c
       -0.046799228 -0.028442385 0.00035308566 0.01828085
000380 dc 27 ab 3c 16 41 0b 3c 67 0c 39 3d cb a7 e1 3b
       0.02089303 0.008499404 0.045177843 0.0068864576
000390 01 4d b6 3c 9c 87 8b bc bc 75 d6 3c 3b 54 2b bd
       0.022253515 -0.017032437 0.026179187 -0.041828375
0003a0 0b 66 78 bc f7 ae ae bb a3 0a 73 3d 63 32 09 3d
       -0.015161048 -0.005330916 0.059336316 0.03349532
0003b0 3b d3 0f 3e a8 c2 ff bb b5 03 62 3d a1 d3 55 3d
       0.14045422 -0.0078051873 0.055179317 0.05220378
0003c0 00 2b c9 38 30 16 03 3d ce dd de 3c 9a 1a 30 3c
       9.592436e-05 0.03200358 0.027205374 0.01074853
0003d0 b3 bb 0f bd c6 e0 0e 3c 40 32 5d 3c e7 aa c6 3c
       -0.035091113 0.008720582 0.01350075 0.024251414
0003e0 2f 06 03 bd 18 6b 68 3d 04 61 b4 3c d7 2b 8c bc
       -0.03198832 0.056742758 0.022018917 -0.017110748
0003f0 4e 84 15 bd a3 fc 18 bc fe f3 47 3d b4 44 ad 3a
       -0.03650313 -0.009337577 0.048816673 0.0013219328

0.bias f4 [256]
000000 ce b8 8b bb f7 4e 3b bc e6 04 73 3d 90 33 94 3d
       -0.004263974 -0.011432401 0.059330843 0.07236397
000010 2f ae 6b 3d 29 80 57 3d 1f 49 01 bc 0b a9 e4 bc
       0.05753916 0.052612457 -0.007890969 -0.027912637
000020 61 db 0c 3d 52 4a 4b 3d b5 09 23 3c 83 36 66 3c
       0.034388904 0.049631424 0.009951045 0.014051083
000030 5a 45 49 3c 57 5e 80 3d 24 6f a3 bc 51 f6 5a bc
       0.012284601 0.06267994 -0.019950457 -0.0133643905
000040 6c 5d 2c bc 8e c2 e9 3c a0 e1 1a 3d de 62 9d bc
       -0.01052032 0.028535154 0.03781283 -0.019212183
000050 e5 ee ea 3c 42 f3 cd bc d3 25 bf bb 94 9b 91 bc
       0.028678367 -0.025140408 -0.0058333664 -0.01777438
000060 d2 07 18 3d 7e 4b c2 3c 83 fb ff bb dc d8 05 3d
       0.037116833 0.023717638 -0.007811965 0.032677516
000070 10 21 b8 bc fb 7f c0 bc b3 9d b7 bc ac a8 92 3d
       -0.022476703 -0.023498526 -0.022414064 0.07161078
000080 dc 1f 80 3c 22 41 1a 3d 5d 91 82 bb f9 e3 b9 bb
       0.015640192 0.03765977 -0.003984614 -0.0056729284
000090 00 40 bd 3a 12 a0 5f 3c 28 d5 8b 3c 90 57 1a bc
       0.0014438629 0.013649004 0.017069414 -0.009420291
0000a0 33 7c 16 bc c6 3a 72 bc 5d 97 0e 3c 38 3f e2 bc
       -0.009184885 -0.0147845205 0.00870308 -0.027618036
0000b0 84 13 97 3c 3e 2c 96 3c 1a 29 e0 3c 89 c0 ad bc
       0.018441923 0.018331643 0.027363349 -0.021209972
0000c0 bb 21 dc 3c 21 0a ff 3c 2f 01 1a bc dc 1d 08 3c
       0.026871553 0.03113276 -0.009399696 0.0083079
0000d0 a4 15 21 bb 57 f9 2f 3d 33 f6 a0 3c 8f c4 12 3d
       -0.002457955 0.0429624 0.019648647 0.035831984
0000e0 0a 20 81 3d 61 a8 16 3d 05 03 47 3b d4 b4 10 bd
       0.06304939 0.036781672 0.003036679 -0.0353287
0000f0 64 bf 0f 3a e7 12 88 3d 05 6a 1a 3a 02 2b 6b 3d
       0.00054835365 0.0664423 0.0005890432 0.057414062
000100 70 f0 12 3c 1e 4e 92 bb a3 bb a1 3b 95 56 d1 3b
       0.008968458 -0.0044648787 0.004935698 0.006388495
000110 d9 34 5f 3d c1 eb 95 3d fe 2a ad 3c 25 62 4b 3c
       0.05449376 0.07320357 0.021138664 0.012413536
000120 3f a8 45 3d b0 bd 3d bc 44 ec 52 3d f3 22 0e 3d
       0.048256155 -0.01158087 0.05149485 0.0347013
000130 1d 6c e4 bb e2 19 f1 3c ae cc c4 3c 97 24 9d 3b
       -0.006970896 0.029431287 0.02402338 0.0047956216
000140 0e 22 70 3d 35 70 67 3d 0c 03 4d bc cc 4d ba 3b
       0.058626227 0.056503493 -0.012512933 0.0056855436
000150 f4 5a c5 3b c7 9a 4d 3b e7 d0 b3 bc a5 ef 24 3d
       0.0060228053 0.0031372772 -0.021950198 0.040267605
000160 ec c2 1c 3d d6 61 31 38 03 de c7 3b 7e a8 eb 3b
       0.03827183 4.2291205e-05 0.006099464 0.0071917167
000170 74 fa a8 bc 3b 10 93 3d 2e 99 4c bc 60 ac 05 bd
       -0.020627238 0.0718083 -0.012487693 -0.032635093
000180 15 b2 a9 3c 48 88 d4 b7 c8 78 fa 3c 2c 02 f3 bb
       0.020714799 -2.533583e-05 0.030575171 -0.0074160304
000190 27 84 f4 3c ee 0c 7a 3d 92 99 1f 3d 2f 50 6d 3d
       0.029848171 0.061047487 0.038964815 0.057937797
0001a0 d3 0d 84 bb d4 d7 87 3b b4 fc 49 3c 26 4b 9c ba
       -0.0040299683 0.0041456018 0.0123283155 -0.0011924251
0001b0 5f be a6 3d b2 ce 2a 3b 32 90 59 3d d7 6f 1b 3d
       0.08141779 0.0026063141 0.05311603 0.037948456
0001c0 d2 ba 36 3d 21 9c 12 3d c7 30 2d 3d 28 d7 a9 3c
       0.04461176 0.035793427 0.042282846 0.020732477
0001d0 8a dc bd bc 39 22 15 3c 8e 5a ce 3b eb 08 ff bc
       -0.02317645 0.009102398 0.006297416 -0.031132182
0001e0 b9 b6 db 3c 9e 13 3c 3a d7 59 e1 3b 04 ef 09 bc
       0.026820527 0.0007174554 0.006877165 -0.008418802
0001f0 16 67 6b bc be ce de 3b ad db d3 bb ec 17 bf bc
       -0.014367839 0.006799548 -0.0064653964 -0.023326837
000200 b6 23 19 3c 3d c7 cc 3c 84 a6 7e bc a9 be 36 3d
       0.009346893 0.024997348 -0.01554263 0.04461542
000210 28 ef d0 bc 96 a6 d7 3a 3f 0b 6d 3d 04 65 cd 3b
       -0.025504664 0.0016452845 0.057872053 0.0062681455
000220 24 49 ed 3b 77 02 17 bc e0 16 1f 3d 89 bf 1e 3d
       0.007241385 -0.009216896 0.038840175 0.03875688
000230 96 e9 75 3d 6c 8c d1 bb 8e 3f b4 3c a8 d8 19 3c
       0.060037218 -0.0063949134 0.022002961 0.009390034
000240 8c 84 30 3b 0d 5c d0 3a 86 a4 9c 3c 47 96 7d bb
       0.0026934473 0.0015896574 0.01912142 -0.0038694309
000250 0d 01 eb 3c 3b da ff bc a4 26 fe bb 1f 26 d0 3c
       0.028687024 -0.03123199 -0.007756071 0.025408803
000260 15 98 0c 3c 0d e4 5e 3d 74 1b 6b 3c 08 fc d8 bc
       0.008581181 0.054416705 0.014349807 -0.026487365
000270 45 3c 6d 3d 71 53 3b bc 5f 32 04 3d 67 5f 1f 3c
       0.057918806 -0.011433468 0.0322746 0.009727336
000280 a0 46 51 3c 96 6f 59 3c a7 a6 24 bc 64 51 c3 3b
       0.012773186 0.013271233 -0.010049499 0.0059606303
000290 6f ec 9c bc 2a de 5b 3b b8 99 66 bc 72 a2 b2 3c
       -0.01915571 0.0033549168 -0.014074735 0.021805976
0002a0 e6 2e f5 3c 86 b9 c6 bc 20 28 4b 3d 8f 7e 6a 3d
       0.02992959 -0.024258386 0.049598813 0.057249602
0002b0 5f 58 4a 3c 6f 68 83 bc 71 40 84 3d 51 df 3d bc
       0.012350171 -0.016041009 0.06457604 -0.011588887
0002c0 8e e4 84 3d da 94 33 bc 4f d3 77 3d 0b 11 98 39
       0.06488906 -0.010960782 0.060504254 0.00029004397
0002d0 e6 dd 77 3d 25 e1 81 3d 28 23 35 bc 84 91 fa 3c
       0.060514353 0.06341771 -0.011055745 0.030586965
0002e0 2c 9d 10 bb ec 02 2a 3d 88 3f 30 3d 12 5b 0b bc
       -0.0022066338 0.041506693 0.043029338 -0.0085056
0002f0 81 21 07 3c 26 75 d8 3c cb 64 f7 bb e2 23 e2 bc
       0.008247734 0.026423048 -0.0075498573 -0.027605
000300 48 3c 6e 3d 25 97 3e 3d cf f3 1d bd e4 73 9d 3c
       0.058162957 0.04653086 -0.038562592 0.0192203
000310 14 8d 3d bb 62 e9 92 bc 45 9d 51 3c 8f 35 06 bc
       -0.00289232 -0.017933551 0.012793844 -0.00819148
000320 b8 d7 93 3b a1 ec d2 3c fe 3f 16 3c 7a 79 2a 3d
       0.0045117997 0.0257476 0.00917053 0.041619755
000330 81 ac 64 3d b8 28 61 3c e9 fc cb bb 74 e4 1d 3d
       0.055828575 0.013742618 -0.0062252176 0.038547948
000340 2a b5 8e bb 74 88 72 3d e8 c0 de 38 71 a1 eb 3c
       -0.0043550925 0.059212163 0.000106217165 0.028763505
000350 62 9f 04 bc cf eb 1d 3d 0e ee 88 3c 22 9b 8f ba
       -0.00809464 0.038554963 0.016715076 -0.0010956267
000360 3e a0 05 3c 6a fb 81 3d 83 a9 95 3c 78 dd 1a 3d
       0.0081558805 0.063467816 0.018269306 0.037808865
000370 f0 d9 c0 3b bc e4 26 bb 3a eb b2 3c e6 65 2f 3d
       0.005885355 -0.0025465926 0.02184068 0.042821787
000380 5c 0a 29 bd 68 35 55 bd 50 93 b9 3c 65 01 9d 3b
       -0.041269645 -0.052052885 0.022653252 0.004791426
000390 7b 6c b8 3c b2 fc 66 bd d2 36 25 3c ad e6 07 bc
       0.022512665 -0.056393333 0.010083871 -0.0082947435
0003a0 26 58 61 bd cd 33 b5 3c 14 48 35 3c 0b 61 12 3c
       -0.055015706 0.022119427 0.011064548 0.00893427
0003b0 18 f9 f1 3c 1b 56 69 bc 55 09 54 3d 7f b1 0f 3c
       0.029537722 -0.014241721 0.051766712 0.008770346
0003c0 fb 28 ea bb 53 72 ea 3b 18 a4 a3 3c 70 56 77 3d
       -0.0071459985 0.007154742 0.019975707 0.060385168
0003d0 61 32 91 3d ee 7f 4d 3d ee 2c 6d 3d b0 43 4b 3b
       0.07089687 0.05017083 0.057904176 0.0031015687
0003e0 f8 1a 22 3c 53 ab 81 bb dc 5a 2c bc 7e 82 e7 3c
       0.009894125 -0.003957191 -0.010519709 0.028260466
0003f0 9b 0e 0d 3d 69 21 1a 3b af 18 2e 3b f2 77 7d bc
       0.034437757 0.002351845 0.0026565006 -0.015470492

2.weight f4 [128, 256]
000000 2f 12 a1 3d 53 54 46 bb f3 43 6e 3c 45 49 ee 3c
       0.07864796 -0.0030262663 0.014542568 0.029087672
000010 5a df 49 bd c4 20 66 3d 34 00 b5 ba c4 40 ed bc
       -0.04928527 0.05618359 -0.0013809265 -0.028961547
000020 5f f3 88 3d a8 36 37 bd b2 57 7f ba fb c0 83 bd
       0.06687044 -0.04472986 -0.00097405456 -0.064332925
000030 f9 38 1a bd 63 96 d5 3d 11 23 42 3d 42 65 44 bd
       -0.03765199 0.104290746 0.047396723 -0.04794813
000040 6b 39 12 3c 4d 3d 19 bb 97 37 71 3d a4 07 b1 3c
       0.008924822 -0.0023382485 0.058890905 0.021610089
000050 b9 b7 99 bd 3a d3 b8 3b 34 2a d4 3c b8 bb 59 bd
       -0.075057454 0.0056404145 0.02589903 -0.05315754
000060 14 dc 41 3c 5b 79 cb bc 04 62 88 bd 37 8f 81 bb
       0.011832256 -0.02483814 -0.0665932 -0.00395384
000070 a1 f3 86 bd 60 8c 2d 3d cf e3 7c 3d b8 30 16 3d
       -0.06589437 0.0423702 0.061740693 0.036667556
000080 f4 92 0a bd 91 59 c3 3b 84 a4 0c bb 95 f6 a4 bc
       -0.03383155 0.005961605 -0.0021460364 -0.02013711
000090 0c 40 71 bc 52 8e 92 bd 31 6c 69 3c 82 d9 ef 3c
       -0.014724743 -0.07156052 0.014246986 0.02927852
0000a0 56 f8 6e 3d 58 66 3c bd 77 1d 72 bd 10 6e ab bd
       0.0583423 -0.04599604 -0.05911013 -0.08370602
0000b0 a7 8f 25 3d 67 19 63 bd 15 db 26 3d 2c ae 16 bd
       0.0404202 -0.055444147 0.040736277 -0.036787197
0000c0 7f 14 42 3d 87 04 21 3c 27 39 1b bd 8f e8 82 bc
       0.047382828 0.00982774 -0.0378963 -0.015980033
0000d0 2c 2c 65 bb 8c a6 6d bd 81 eb ac bd 2b b7 5b bd
       -0.0034968955 -0.05802016 -0.08443356 -0.05364148
0000e0 ef c5 ec bc c8 df 6f bc 77 52 3d 3d 9a 88 72 3c
       -0.028902976 -0.014640756 0.046221223 0.014803076
0000f0 42 c4 35 bd b9 c9 20 3d 47 23 02 3d ec 42 23 bc
       -0.04437662 0.039254878 0.031771924 -0.009964686
000100 18 80 19 bd 2f 45 a1 3d 0b d2 1e bd 1a a3 e1 3c
       -0.037475675 0.07874524 -0.03877453 0.027543593
000110 9e 81 25 bd af 93 11 3d 70 c6 c1 3d 59 12 c4 bc
       -0.040406816 0.035541233 0.09461677 -0.02393453
000120 b2 99 8a 3a 1c 25 97 bc c1 0a 81 3b bd b9 20 bd
       0.0010574369 -0.018450312 0.0039380495 -0.039239634
000130 b5 e4 ad bd d9 01 06 3d 6c 86 1a 3d 69 5b 93 bd
       -0.08490888 0.032716606 0.03772585 -0.071951695
000140 dc 77 f5 bc bf 13 8b bd 77 47 d3 3c c7 4c 2c bd
       -0.02996438 -0.06790876 0.025790913 -0.042065408
000150 a1 c0 6f bd 86 2a 28 bd 9a 01 8b bd 2f 8e b7 bd
       -0.058533315 -0.04105618 -0.06787415 -0.08962666
000160 e0 d1 c9 3c 4b 19 51 bd 3d 4c 00 bd 6b 48 cb bd
       0.024636209 -0.051049512 -0.031322706 -0.09925922
000170 03 61 80 bc 76 b0 8b 3c 4d f8 5c bd 91 e1 32 bd
       -0.015671259 0.017051917 -0.053947736 -0.04367215
000180 a6 0e 9c 3d a6 46 bb bd 22 e5 af bc 91 23 52 3d
       0.076199815 -0.091443345 -0.021471564 0.05130345
000190 28 47 f4 3b 33 70 46 3d b8 9d d3 3c be 36 4b bd
       0.0074547715 0.048446845 0.025832042 -0.049612753
0001a0 8a 65 ae 3d 10 ab 01 bd fa 77 9f bd 9b e2 13 3c
       0.08515461 -0.03165728 -0.077865556 0.009026195
0001b0 d6 e4 b9 3d eb d6 2c 3d b4 bf e6 bc e6 8a 7f bc
       0.0907685 0.04219715 -0.028167583 -0.015597081
0001c0 dd 57 f8 3c 42 72 78 3d e9 03 4e 3c 1c 96 07 3c
       0.030315334 0.06065584 0.012574174 0.008275535
0001d0 c5 45 4d 3c 84 3e 0c bd a6 1c ce 3b 19 66 0e bd
       0.012528841 -0.034239307 0.0062900363 -0.034765337
0001e0 a0 3f 80 bd 37 1d fa 3c f8 9e 91 bc f2 2f 12 bc
       -0.062621355 0.030531509 -0.017775998 -0.008922564
0001f0 52 eb 17 3d f6 42 e1 bb e7 9d a7 3b c5 10 29 bd
       0.037089653 -0.0068744374 0.005115259 -0.04127576
000200 88 8f 8d bc 45 06 51 3c f5 b3 7e bd 7e bd b0 3c
       -0.017280355 0.012757842 -0.06218334 0.021574732
000210 96 c3 3a 3d 76 c2 a0 bb b6 00 a1 bd 52 a0 c4 bd
       0.04559668 -0.004905994 -0.07861464 -0.09600891
000220 8b bf 01 3c d3 0c 7c bd 96 a3 7c 3d 6e 5a 13 3c
       0.007919203 -0.061535668 0.061679445 0.008993728
000230 32 79 0e bd f0 b9 c3 bc a4 b4 97 bd 57 2c 50 3c
       -0.03478355 -0.023892373 -0.07407501 0.012705884
000240 63 40 41 bd 64 4a 46 3d 10 1a 80 bd c1 ed 1f bd
       -0.047180545 0.04841079 -0.06254971 -0.0390451
000250 35 2f 8f bd 98 fd 66 bc f2 ba 1e bd d2 82 0c 3d
       -0.06991426 -0.014098547 -0.038752504 0.034304447
000260 cb d3 83 bd 7d 25 f1 bc 96 cf 09 3d 48 d1 4d 3d
       -0.06436881 -0.029436821 0.033645235 0.050248414
000270 c1 80 16 bd d5 e2 cc 3c 6c 5d 9d 3c 19 9d 79 3b
       -0.036743883 0.025010506 0.019209586 0.0038088022
000280 2e c5 6d bc f6 94 90 3c b5 c7 e2 39 27 f3 49 3d
       -0.014512343 0.017649155 0.00043254872 0.049304154
000290 53 b1 9c bd 5e 10 20 bd 89 fc 99 bd 0e 01 b9 bd
       -0.076510094 -0.03907811 -0.075188704 -0.09033404
0002a0 d9 e5 d0 3c 8d 91 a3 3d 25 a9 6c 3d 8b df 42 bd
       0.025500225 0.07986746 0.057778496 -0.04757647
0002b0 e3 22 86 3d 81 53 37 3d 7c 13 92 bc 22 d2 f7 bc
       0.06549623 0.04475737 -0.017831556 -0.030251566
0002c0 47 30 8f bd 44 86 2e bd 52 83 f0 3c fe 38 95 bd
       -0.0699163 -0.042608514 0.029359493 -0.07286261
0002d0 3d d6 90 3d a7 0d 9a bd f0 19 0a bd 87 88 79 bd
       0.07072113 -0.07522135 -0.033716142 -0.06092122
0002e0 31 e5 92 3d c5 36 3e 3d 22 76 c2 3d 24 e0 78 bb
       0.07172621 0.04643895 0.09495188 -0.0037975395
0002f0 ec 06 6e bc c2 42 98 bd e6 b2 fa 39 6e c7 0e 3d
       -0.0145280175 -0.07434608 0.00047817006 0.03485816
000300 93 ff 7a bd 2f 9c 01 3b 05 fd 8a bc 34 9b 82 bd
       -0.06127889 0.001977693 -0.016966352 -0.06377259
000310 ff 8f 99 bd 70 fa 8a bd c8 e0 f7 bc 14 a4 84 bd
       -0.07498168 -0.067860484 -0.030258551 -0.06476608
000320 06 cc 3c 3c b6 51 d9 3c b9 27 36 3d 17 b7 1c bc
       0.011523252 0.02652822 0.044471476 -0.009565136
000330 17 c6 eb 3c c3 3a 83 bd f2 6b 39 bd 8b 51 42 3d
       0.02878098 -0.06407692 -0.04526896 0.047441047
000340 a0 a3 79 bd d3 b6 44 3d 7b 3b c3 bc 9d ff c6 39
       -0.06094706 0.048025917 -0.023832073 0.0003795595
000350 eb af fd 3c c5 62 84 3c 50 b8 3a 3d 24 34 97 3c
       0.030967673 0.016160378 0.04558593 0.01845748
000360 2b 79 4c bd 2d 1f 80 3d 16 21 e8 b8 ee f6 35 3d
       -0.049920242 0.06255946 -0.00011068785 0.044424944
000370 81 fd 92 3d 5b 99 5b 3c c4 2a 20 3d 52 b3 80 bd
       0.07177258 0.013403262 0.039103284 -0.06284203
000380 44 33 47 bd f9 76 17 bd 71 06 2c bd 09 03 0e bd
       -0.048632875 -0.036978696 -0.04199833 -0.034670863
000390 c0 be b4 3c d0 1f de 3c 67 41 ad bc 59 5c 91 3d
       0.022063613 0.027114779 -0.02114935 0.07097692
0003a0 2c de 8d bd 75 12 51 3d c3 a6 1d 3d db 5f 0c bd
       -0.069271415 0.051042993 0.038489114 -0.034271102
0003b0 2a a5 8a bd df 30 0f 3c b2 f4 2c 3d 5d 6b 0b bd
       -0.06769784 0.008739679 0.042225547 -0.034037936
0003c0 92 44 a6 bc 11 d6 08 3d bb 65 bb bc 94 ee 1b 3d
       -0.020296369 0.033407275 -0.022875657 0.038069323
0003d0 89 27 10 3d 14 b4 aa 3c 66 28 1e 3d b5 d9 ec 3c
       0.035193954 0.020837821 0.038612746 0.028912405
0003e0 e6 70 01 3d c3 0c 40 3d 8f 0c 90 bd 38 4e a5 3b
       0.03160181 0.04688717 -0.07033645 0.005044725
0003f0 69 91 f5 3b f2 75 8d 3d 73 e1 1e 3d f0 f9 82 bb
       0.007494141 0.06907262 0.038789224 -0.00399708

2.bias f4 [128]
000000 e9 3b 6c bc 45 41 07 3d 76 b3 10 bd fe 4c e6 3c
       -0.014418581 0.03302123 -0.035327397 0.028112885
000010 b9 92 19 3d 22 46 81 bd 04 92 b0 3c c3 48 17 3c
       0.03749344 -0.06312205 0.021554 0.009233656
000020 6b cd 4f bc 34 68 39 bd ed 23 40 3d 10 99 e6 bc
       -0.012683253 -0.04526539 0.04690926 -0.028149158
000030 1a ac 49 bd f3 ff 2e 3d b2 c0 3a bd b2 6e 87 bd
       -0.049236394 0.04272456 -0.045593925 -0.0661291
000040 e0 6c 31 3d 7b 81 2e bd 20 06 bc ba 98 8a 36 bc
       0.043316722 -0.04260395 -0.0014345087 -0.011141442
000050 00 d9 72 bd d4 6b 54 3d 71 0a cc 3b c6 ea 1d 3c
       -0.05928898 0.051860645 0.0062268307 0.009638494
000060 6f ed 1c 3d 91 ab 91 bc 06 08 8b 3c 30 85 8b 3d
       0.03831237 -0.017782005 0.0169716 0.06812513
000070 5e fa 92 3b 87 ff b0 bc cd 85 46 bd 7e c9 84 bc
       0.0044854125 -0.02160622 -0.048467446 -0.01620936
000080 3e b2 04 bc e4 02 93 bd e5 b2 38 bd 79 34 75 bd
       -0.008099137 -0.07178286 -0.045092482 -0.059864495
000090 7f 41 d9 39 b0 6a 73 3c 91 44 b5 bc 53 e6 24 bd
       0.00041438264 0.014856979 -0.022127422 -0.040258717
0000a0 e0 50 ba bb 45 e6 50 3c 85 77 18 3d 23 17 9c bc
       -0.0056859106 0.012750213 0.037223358 -0.019054001
0000b0 8f 8c 35 3d b7 ad 17 bd 9a 34 62 3d 40 d9 d4 3c
       0.0443235 -0.0370309 0.055225946 0.0259825
0000c0 22 7e f8 bc c0 31 42 3d 82 d1 06 3d 21 95 82 3d
       -0.030333582 0.047410727 0.032914646 0.063761
0000d0 49 de 2f 3d eb 8c 82 3c bd 87 8e 3d c9 d5 08 bd
       0.042936597 0.015936336 0.06959484 -0.033407006
0000e0 7a af 47 3d a9 d1 bb 3b 41 53 4d 3d f7 2b 59 bd
       0.048751332 0.0057317805 0.050128225 -0.053020444
0000f0 4c 2a 1d bd fc 50 68 bd 67 1e cf 3b 6b ef 14 bd
       -0.038370416 -0.056717858 0.006320763 -0.03636114
000100 ee e8 a1 bc 7c e9 88 3d a3 d8 6a 3d fc 26 51 bd
       -0.01976439 0.066851586 0.057335507 -0.05106257
000110 1d d1 f4 3c e3 29 0a bd e9 fe 0b 3d 69 26 e7 bc
       0.02988487 -0.033731353 0.03417865 -0.028216558
000120 8b 40 92 bc 11 97 46 3d ce 82 5b bd 2b 64 82 bd
       -0.017853042 0.048483912 -0.053591542 -0.06366762
000130 d3 f0 95 3d c5 9b 3d bd 73 86 3c 3d 96 28 c1 bb
       0.07321324 -0.04629113 0.04602666 -0.005894731
000140 7c 1b b8 3c 51 28 18 bd 0a 70 0c 3d d2 81 a2 bc
       0.022474043 -0.037147824 0.034286536 -0.019837294
000150 79 d2 07 bd 93 2a 89 bd 1b f4 10 bd e4 a1 7c bc
       -0.033159707 -0.066975735 -0.035389047 -0.015419457
000160 df c9 1a bd 09 89 e3 3c 87 de 91 3a 7c 95 19 bd
       -0.037790176 0.027775304 0.001112894 -0.037496075
000170 a9 b1 ef 3c 8b 2a 0e bd cb e8 e4 bc cd a7 35 bd
       0.02925952 -0.03470854 -0.027943036 -0.04434948
000180 40 77 47 3d 8b 27 0e 3d 1a 05 a3 bc 78 16 d4 3c
       0.04869771 0.03470568 -0.019899894 0.02588962
000190 70 02 a4 bb 40 95 28 b9 2a 8a 48 bc 15 b7 44 3c
       -0.0050051734 -0.00016077328 -0.012239972 0.012006541
0001a0 fc 5a 93 3d 2e 87 03 3d 49 f8 85 bb a9 dc 15 bb
       0.07195088 0.03211134 -0.004088436 -0.002286712
0001b0 26 b8 11 3d 91 1a a0 3c 73 90 50 3d 26 f6 49 3d
       0.03557601 0.019543918 0.050919008 0.04930701
0001c0 23 79 b0 bc 25 55 7a bd c9 a6 18 bd d0 44 64 bd
       -0.021542137 -0.061116356 -0.037268434 -0.055729687
0001d0 b8 dc 86 3a cd 48 40 bd fd 58 e7 bc 10 ff e3 bc
       0.0010289168 -0.04694443 -0.028240675 -0.027831584
0001e0 71 0f 1d bd 67 a2 44 3d 3a c5 2e 3d 29 0a 21 bd
       -0.038344804 0.04800644 0.04266856 -0.03931633
0001f0 4b 2f 91 3c d5 93 87 bd 3c 0a 60 bd 2e 27 ee 3c
       0.017722746 -0.066199936 -0.05469726 0.029071417
